…
prenet_f0_n_layers: 1
prenet_rms_dim: 0
prenet_rms_kernel_size: 1
ref_enc_filters:
- 32
- 32
- 64
- 64
- 128
- 128
ref_enc_gru_size: 128
ref_enc_pad:
- 1
- 1
ref_enc_size:
- 3
- 3
ref_enc_strides:
- 2
- 2
sampling_rate: 22050
seed: 1234
speaker_embedding_dim: 64
symbols_embedding_dim: 512
text_cleaners: hanzi
token_embedding_size: 0
token_num: 10
train_mode: train-rtvc
use_saved_learning_rate: false
weight_decay: 1.0e-06
win_length: 1024
with_gst: false

Loading checkpoint '/home/project/zhrtvc/models-gmw/models/mellotron/kuangdd-rtvc/mellotron.kuangdd-rtvc.pt'
checkpoint_dict的内容: Tacotron2(
  (embedding): Embedding(145, 512)
  (encoder): Encoder(
    (convolutions): ModuleList(
      (0): Sequential(
        (0): ConvNorm(
          (conv): Conv1d(512, 512, kernel_size=(5,), stride=(1,), padding=(2,))
        )
        (1): BatchNorm1d(512, eps=1e-05, momentum=0.1, affine=True, track_running_stats=True)
      )
      (1): Sequential(
        (0): ConvNorm(
          (conv): Conv1d(512, 512, kernel_size=(5,), stride=(1,), padding=(2,))
        )
        (1): BatchNorm1d(512, eps=1e-05, momentum=0.1, affine=True, track_running_stats=True)
      )
      (2): Sequential(
        (0): ConvNorm(
          (conv): Conv1d(512, 512, kernel_size=(5,), stride=(1,), padding=(2,))
        )
        (1): BatchNorm1d(512, eps=1e-05, momentum=0.1, affine=True, track_running_stats=True)
      )
    )
    (lstm): LSTM(512, 256, batch_first=True, bidirectional=True)
  )
  (decoder): Decoder(
    (prenet): Prenet(
      (layers): ModuleList(
        (0): LinearNorm(
          (linear_layer): Linear(in_features=80, out_features=256, bias=False)
        )
        (1): LinearNorm(
          (linear_layer): Linear(in_features=256, out_features=256, bias=False)
        )
      )
    )
    (attention_rnn): LSTMCell(832, 1024)
    (attention_layer): Attention(
      (query_layer): LinearNorm(
        (linear_layer): Linear(in_features=1024, out_features=128, bias=False)
      )
      (memory_layer): LinearNorm(
        (linear_layer): Linear(in_features=576, out_features=128, bias=False)
      )
      (v): LinearNorm(
        (linear_layer): Linear(in_features=128, out_features=1, bias=False)
      )
      (location_layer): LocationLayer(
        (location_conv): ConvNorm(
          (conv): Conv1d(2, 32, kernel_size=(31,), stride=(1,), padding=(15,), bias=False)
        )
        (location_dense): LinearNorm(
          (linear_layer): Linear(in_features=32, out_features=128, bias=False)
        )
      )
    )
    (decoder_rnn): LSTMCell(1600, 1024, bias=1)
    (linear_projection): LinearNorm(
      (linear_layer): Linear(in_features=1600, out_features=80, bias=True)
    )
    (gate_layer): LinearNorm(
      (linear_layer): Linear(in_features=1600, out_features=1, bias=True)
    )
  )
  (postnet): Postnet(
    (convolutions): ModuleList(
      (0): Sequential(
        (0): ConvNorm(
          (conv): Conv1d(80, 512, kernel_size=(5,), stride=(1,), padding=(2,))
        )
        (1): BatchNorm1d(512, eps=1e-05, momentum=0.1, affine=True, track_running_stats=True)
      )
      (1): Sequential(
        (0): ConvNorm(
          (conv): Conv1d(512, 512, kernel_size=(5,), stride=(1,), padding=(2,))
        )
        (1): BatchNorm1d(512, eps=1e-05, momentum=0.1, affine=True, track_running_stats=True)
      )
      (2): Sequential(
        (0): ConvNorm(
          (conv): Conv1d(512, 512, kernel_size=(5,), stride=(1,), padding=(2,))
        )
        (1): BatchNorm1d(512, eps=1e-05, momentum=0.1, affine=True, track_running_stats=True)
      )
      (3): Sequential(
        (0): ConvNorm(
          (conv): Conv1d(512, 512, kernel_size=(5,), stride=(1,), padding=(2,))
        )
        (1): BatchNorm1d(512, eps=1e-05, momentum=0.1, affine=True, track_running_stats=True)
      )
      (4): Sequential(
        (0): ConvNorm(
          (conv): Conv1d(512, 80, kernel_size=(5,), stride=(1,), padding=(2,))
        )
        (1): BatchNorm1d(80, eps=1e-05, momentum=0.1, affine=True, track_running_stats=True)
      )
    )
  )
  (speaker_embedding): Linear(in_features=256, out_features=64, bias=True)
)
